model/keypoint_classifier/model.tflite (tflite, 7556 bytes, 6 tensors)

sequential/dense/BiasAdd/ReadVariableOp f4 [20]
000000 6e 7a 19 bf de fe 70 3e 9d 6d 2d bf 73 97 23 3e
       -0.5995244 0.23534724 -0.6774538 0.15975742
000010 7b 51 8d 3d eb 05 33 bf 56 b7 bf be 89 0e 96 bd
       0.06900307 -0.69930905 -0.37444562 -0.07326991
000020 9b da ca 3c a5 49 9b 3e 23 65 00 3f ad 7f e1 3d
       0.024762442 0.30329624 0.5015432 0.1101068
000030 6f 3e 6f bf 7d 9e 05 3f 9e 64 72 bd db ed 37 bf
       -0.9345464 0.5219496 -0.059177987 -0.71847314
000040 cd ef 2f bf 3a 13 ee be ba 6f b0 3e a9 a2 ee 3d
       -0.6872528 -0.46499044 0.3446024 0.11652119

sequential/dense_2/BiasAdd/ReadVariableOp f4 [27]
000000 43 ad 14 bf 90 d1 2a be 25 7e d9 be 5a 51 7a be
       -0.58076876 -0.16681504 -0.42479053 -0.24445096
000010 c7 ac 43 be 47 b3 b0 3d d9 f4 b7 bf d4 48 8c bf
       -0.19108878 0.086279444 -1.4371597 -1.0959725
000020 04 2c 8b 3e e3 51 b3 bd d6 58 66 3e ac 89 ee bd
       0.2718202 -0.08755853 0.22494826 -0.116473526
000030 f6 25 19 3e 36 b4 aa 3e 22 42 8c 3e e3 3c 55 bb
       0.14955887 0.33340615 0.27394205 -0.0032537512
000040 9c 93 ce 3e cc aa fc 3e 3d 2f 11 3e f9 a1 6f 3f
       0.40346992 0.49349058 0.14178176 0.93606526
000050 d2 a8 5d 3f dc ec cd 3e 02 ee 86 3e 4e b0 16 3e
       0.86585724 0.40219772 0.2635346 0.14715692
000060 cb 67 97 be b3 10 8e be c8 d9 b9 be
       -0.29571375 -0.27747115 -0.36298966

sequential/dense_1/BiasAdd/ReadVariableOp f4 [10]
000000 be c8 0b bf b3 13 7d 3f e1 c6 96 3f 4e 64 03 3f
       -0.54603183 0.98858184 1.1779443 0.5132493
000010 34 e5 de 3e fe a5 83 3f 1b 6e 02 bd 8d bb 45 3e
       0.43534243 1.0285032 -0.031843286 0.19309826
000020 02 59 93 3e 24 26 ae be
       0.28778845 -0.34013474

sequential/dense/MatMul f4 [20, 42]
000000 58 fb 3c 3e e6 b3 98 bd 5a dd 2b be 59 8f 88 be
       0.18455255 -0.07456188 -0.16783658 -0.26671866
000010 03 07 d1 3d 68 1e 6b be b6 5c e1 bc 4b 7e 89 be
       0.102064155 -0.22960818 -0.027510028 -0.26854166
000020 bf 9d fe 3d 78 9c c2 be 53 a3 e7 bd 59 4a 20 3d
       0.124324314 -0.3801 -0.113104485 0.039133403
000030 76 f8 8b bd 74 39 5c 3e da db 47 be 37 29 85 3e
       -0.068344995 0.21506292 -0.1951746 0.26008007
000040 1d 39 19 be fd 7d ab 3e 2a c2 14 be dc d6 02 3e
       -0.14963193 0.3349456 -0.14527193 0.12777275
000050 8c ab 4b bd 8d 19 77 3e 80 50 f5 be 57 c3 45 3c
       -0.049724147 0.2413084 -0.4791298 0.012070498
000060 96 c3 fd be 63 3c 69 3c 9a 21 68 3d 7f ed f3 3e
       -0.49563283 0.014235589 0.05667267 0.47642133
000070 20 9a 7a be e7 05 94 3e 6e c3 c2 be 2f 0a 30 3e
       -0.24472857 0.28910753 -0.38039726 0.17191385
000080 1f 5a f6 be 88 1e de 3d d1 c8 c3 3d 52 00 ef 3e
       -0.48115632 0.10845667 0.09559787 0.46679932
000090 ef 75 23 be 35 96 c4 3e ee d1 b8 be 30 93 a4 3e
       -0.15962957 0.3839585 -0.36097664 0.32143545
0000a0 ed 0a 07 bf de f3 52 bd b8 25 7c 3e 46 da 6f be
       -0.52751046 -0.0515021 0.24623764 -0.23423108
0000b0 c2 da 35 be ed 35 88 bf 33 28 7b be 19 c8 77 bf
       -0.1775923 -1.0641457 -0.24527054 -0.967897
0000c0 6b 28 2a be e1 2f 03 bf 2d 12 8e 3d 1d 42 dd be
       -0.1661698 -0.5124493 0.069370605 -0.43214503
0000d0 3e ba fa be e5 5f 9a be a3 20 09 be e7 d6 f4 bd
       -0.48970217 -0.30151287 -0.13391356 -0.11955052
0000e0 b6 71 6b bc ec e0 d8 3d ae 9e bc bb f6 bc fd 3d
       -0.0143703725 0.105897754 -0.005756221 0.12389557
0000f0 fe 5b da be 55 6c a3 be 7d be a6 3d 36 61 20 3e
       -0.4264831 -0.31918588 0.081418015 0.15662083
000100 81 36 53 3e 71 e9 b2 3e 32 6e 30 3e e7 de ae 3e
       0.2062626 0.34943727 0.17229536 0.34154436
000110 aa dd bf be f4 e9 09 3c 82 ce ed 3c 10 f7 52 3e
       -0.37473804 0.008417595 0.029029135 0.2060206
000120 04 be cc 3d de 77 d3 3e 06 5c 06 bd 5d b4 b1 3e
       0.0999718 0.4130239 -0.032802604 0.3470792
000130 c5 a8 0f bf 27 39 8d 3e 16 d5 c9 bd 5c b6 bf 3e
       -0.56116897 0.27582666 -0.09855096 0.37443817
000140 0d d3 e9 3d ee 1f 23 3f c0 19 d7 39 14 c6 1c 3f
       0.11417208 0.63720596 0.0004102718 0.61239743
000150 00 f1 42 bc ae fd 8a 3e 97 ea b0 3e db 8d a7 be
       -0.011898279 0.27146667 0.34553978 -0.32725415
000160 f3 a8 3e 3d be 32 bb 3d cd 21 7b ba 6f 7d f0 bd
       0.04654784 0.09140538 -0.0009579927 -0.117426746
000170 81 05 36 bb 00 61 97 bc 31 f5 7d 3d 70 0d 3e 3e
       -0.0027774277 -0.01847887 0.06200141 0.18559813
000180 4b 4b 21 bf 20 34 41 3e 51 81 33 bf fb b2 15 3e
       -0.6300551 0.1886754 -0.70119196 0.14619057
000190 5e 53 1d bf 6a fb 3b 3e 9e 84 2a be 0f 07 0a 3e
       -0.61455333 0.18357626 -0.16652152 0.13479255
0001a0 1d 8b 0c bf 1f 23 3d bd 4c de 3b bf 74 ea 27 be
       -0.5489977 -0.046176072 -0.73386073 -0.1639803
0001b0 01 80 5e bf 3d cb 26 be de 71 8a be e8 23 9f 3e
       -0.8691407 -0.16288467 -0.2704 0.31082082
0001c0 56 11 e3 be 54 bb 72 bd 85 1c 39 bf 18 9f 26 bd
       -0.44349164 -0.05926068 -0.7230914 -0.040679067
0001d0 06 23 60 bf c5 fc 68 bd 70 42 af be 79 52 88 3e
       -0.8755344 -0.056881685 -0.34230375 0.26625422
0001e0 97 d1 71 be 18 61 fe 3d 64 88 12 bf 4c e0 57 be
       -0.23615108 0.12420863 -0.57239366 -0.21081656
0001f0 2f d3 2f bf 2e ec 4e be 58 eb 61 3e 3c 43 87 3d
       -0.68681616 -0.20207283 0.22062433 0.06604621
000200 60 15 99 bf be 02 83 3f 03 51 18 bf 86 78 04 3f
       -1.1959648 1.0235212 -0.59498614 0.51746404
000210 f5 98 1d bf ea bc 6d 3e f2 60 2e bf 87 24 c2 3a
       -0.6156152 0.23216596 -0.68116677 0.0014811911
000220 be 5e a0 bd e2 10 4c bd 45 97 79 bc a3 b2 45 bd
       -0.07830571 -0.04982079 -0.015233819 -0.048266064
000230 06 ab 59 3d 79 9f e9 bd b6 f0 20 bd a8 b5 d3 bd
       0.053141616 -0.1140737 -0.03929206 -0.103373826
000240 3e bf f9 3e 09 07 ca be 04 02 03 3c ca ad 15 be
       0.4877872 -0.39458492 0.007996086 -0.14617077
000250 d1 04 ed bd 88 10 8d 3d 88 c1 22 be 12 41 56 3d
       -0.11573184 0.06887919 -0.15894139 0.05230815
000260 d3 46 86 3f 75 f8 b1 be a0 82 a9 3e f3 7b 92 be
       1.0490364 -0.3475987 0.3310747 -0.2861019
000270 c6 f4 00 bd fe be 1d bd 95 61 a8 bd 69 2e 34 bc
       -0.031483434 -0.038512222 -0.08221737 -0.010997393
000280 e8 66 9d 3f 60 3f 08 bf 1a ab 23 3f f8 17 4a be
       1.229703 -0.532217 0.63932955 -0.19735706
000290 f2 fd 01 3f fb a3 d3 bd c5 d1 04 3f 0d 95 91 3d
       0.50778115 -0.10334011 0.5188258 0.07108507
0002a0 80 4b 65 bd 3a 5b c6 bd 69 84 0e 3e 6d 72 54 be
       -0.055980206 -0.09685369 0.13917698 -0.20746775
0002b0 13 04 5f 3e 04 52 85 3d db 16 a7 3e 53 7c 20 3d
       0.21778898 0.06509784 0.32634625 0.039181065
0002c0 91 d4 d7 3e c7 32 9f 3d 2f 10 6e be e6 ec 04 3e
       0.42154363 0.07773357 -0.23248361 0.12980995
0002d0 ff a0 a9 3e 87 a1 d6 3d ca 38 90 3e 56 c4 74 3d
       0.33130643 0.10480028 0.28168327 0.059757553
0002e0 1f 29 16 3f 55 7f 38 bb 1c 75 54 3c 9d e4 ca 3d
       0.58656496 -0.0028152068 0.012967374 0.09906886
0002f0 9c f8 3a 3f af 53 b5 3c 93 dc 6b 3f d1 ab 84 be
       0.730356 0.02213463 0.92133445 -0.25912336
000300 26 fc 92 3f b0 1f d6 be 02 74 26 3f 78 79 8e 3e
       1.14832 -0.4182105 0.65020764 0.27827048
000310 8f 5b 7c 3f 3f c5 da bc 61 ba 76 3f 8b 84 a7 be
       0.9857721 -0.026705382 0.9637814 -0.3271831
000320 a4 ec 61 3f 00 af e6 be 60 9d 15 3f 5c 1a 79 3e
       0.8825171 -0.4505539 0.5844326 0.24326462
000330 a5 02 78 3f c1 02 36 3d d9 81 60 3f 37 d4 74 be
       0.96879035 0.04443622 0.8769813 -0.23909079
000340 2b 89 b2 3f d1 98 b4 be f0 c2 de 3c ba 77 e2 bd
       1.394811 -0.3527284 0.027192563 -0.11057992
000350 81 7b 27 3d d5 4f d0 3e 34 f1 49 bc 5c 4a 41 3e
       0.040889267 0.40685907 -0.012325574 0.18876022
000360 6a bc 8b bd 7e 48 19 3e 72 21 35 bc 99 6f 11 3e
       -0.068230465 0.1496906 -0.011055337 0.14202727
000370 98 57 b4 3d 9c 65 14 3e 42 62 d1 bc 05 39 0a 3e
       0.0880577 0.14491886 -0.025559548 0.13498314
000380 f0 aa 88 ba 7a 0a ef 3d fa 50 90 bc d1 66 f4 3d
       -0.001042692 0.1167192 -0.017616738 0.11933673
000390 06 41 2e bc 9e c7 d6 3d 99 9a 24 3e 82 64 36 3c
       -0.01063562 0.10487293 0.160746 0.011132361
0003a0 1f 43 85 3d e0 79 9f be 55 78 d2 3d 7e 7c 3e bf
       0.06506943 -0.3114767 0.10276858 -0.7440871
0003b0 36 ce 00 3d 0c 7f 0e 3e aa 28 82 3c b0 13 27 be
       0.031446658 0.13915652 0.01588853 -0.16316104
0003c0 5c 6b fa bc f1 e6 2a bf e9 f4 f9 bd c6 ee 69 bf
       -0.030568771 -0.6675864 -0.12204916 -0.91379964
0003d0 02 51 b8 bd 9e e3 0c 3e 27 a4 78 3c db 08 cb bd
       -0.08999826 0.13758704 0.015175856 -0.099137984
0003e0 ef 65 94 3d 3a 8a 84 be e4 6c fd 3d 47 e6 fb be
       0.07246005 -0.25886708 0.12374285 -0.49199125
0003f0 90 e2 31 3e ac 1e 66 be 0c a4 06 bf 20 d8 2a 3f
       0.17371583 -0.22472638 -0.52594066 0.6673603

sequential/dense_1/MatMul f4 [10, 20]
000000 cd d3 0b 3f a2 b1 c6 3d ca a1 a9 3d 76 a5 31 3d
       0.5462006 0.097018495 0.08282812 0.043370686
000010 b6 66 7b 3f 1f 38 99 3e 94 6b dc 3c 7f e7 ba 3f
       0.982036 0.2992563 0.026906766 1.4601897
000020 d8 26 3f 3d 15 c6 ff 3d 23 f6 31 3f 6c b8 0c 3f
       0.046667904 0.12488953 0.695162 0.54968905
000030 c9 70 d7 3d 28 35 99 3e 65 b2 70 be 4e bf 10 bf
       0.10519559 0.29923368 -0.23505552 -0.5654191
000040 f7 d0 69 3e d0 75 76 3d 39 ff 93 3f ae 55 23 3f
       0.2283362 0.06017095 1.1562263 0.6380261
000050 4b b9 38 be 01 c1 7f 3d c9 59 a9 bd 5d f2 50 bc
       -0.18039434 0.062439922 -0.08269078 -0.012753096
000060 df 39 51 3e 01 78 1a bf 72 83 8c bf 93 73 3f be
       0.20432232 -0.6033936 -1.0977614 -0.18696432
000070 e8 18 0e 3e 7e 57 e7 3e 8e db 61 3e 11 d4 13 3f
       0.13876688 0.4518394 0.2205641 0.5774546
000080 c0 07 f6 bd 31 5f 58 3e 0a 9a 94 be d9 fd 6f bd
       -0.12013197 0.21130063 -0.29023772 -0.058591697
000090 bb 2a 3f bf a0 ea 73 bd 80 72 46 3f fe c7 5c 3e
       -0.74674577 -0.059549928 0.77518463 0.21560666
0000a0 0a 0a ec 3e a4 8b 62 3f 70 a6 94 3e 78 c3 c4 bf
       0.4610141 0.88494325 0.29033232 -1.5372152
0000b0 7a ae d4 be 76 b8 85 bc 2f 25 ce be 11 c1 80 bf
       -0.41539365 -0.01632331 -0.40262744 -1.0058919
0000c0 af cb e3 be a5 dd 2c 3e d8 2c b5 3d a9 3e 93 3e
       -0.44491336 0.16881426 0.08846444 0.28758743
0000d0 40 98 60 3f a5 19 a5 bf da a9 8c bf 48 1f d9 3e
       0.87732315 -1.2898451 -1.0989335 0.42406678
0000e0 f8 a6 51 bd ff 76 9e 3e 16 30 e1 3e 9b 7a 95 3e
       -0.051184624 0.30950162 0.43982 0.29195103
0000f0 6a 67 61 bf fa 0e a7 bf 70 61 9a be 51 6f 6f 3f
       -0.8804842 -1.3051445 -0.30152464 0.9352923
000100 86 17 0a 3f 71 19 63 3f 8e 92 9a 3e b2 e9 d0 3e
       0.53942144 0.88710696 0.30189937 0.40803295
000110 f6 8d c5 3e b5 8c 1d 3d cc 50 7d be 4c ee fd 3e
       0.3858487 0.038464267 -0.24737853 0.4959587
000120 0f b2 e9 be 6c 78 9f 3f b3 e5 77 3f 7d 68 87 3d
       -0.4564366 1.2458625 0.9683487 0.066117264
000130 dc 00 1c 3f d4 42 89 be 4c b2 5a be 22 a9 bf be
       0.6093881 -0.26808798 -0.21357077 -0.37433726
000140 00 ea 06 be 14 fb 80 3e 7d 4e 21 3f cb 02 8f 3e
       -0.13175201 0.25191557 0.6301039 0.27931818
000150 7b f1 0c 3f 72 44 94 bb dd 7d 8c 3f 79 18 db bd
       0.5505597 -0.004524761 1.097591 -0.10698027
000160 0c 56 62 be 5c 1a 80 3f 3c 22 66 bf 73 df d1 3e
       -0.22103137 1.0008044 -0.8989599 0.4099079
000170 ee 0a 45 3f 84 2a 0d be 6e 64 81 3d 84 8a 9b 3e
       0.769698 -0.1378575 0.063179836 0.30379117
000180 c4 e6 7d 3d 86 3f 1f 3f 36 89 88 bf 98 3d 66 be
       0.061987653 0.62206304 -1.0666873 -0.22484434
000190 20 e0 9c be 12 34 7c be d2 d2 33 be 14 33 d2 3c
       -0.30639744 -0.24629238 -0.1756089 0.025659122
0001a0 d2 f1 87 3d 9b a1 dd bc fc 09 9e 3d 93 ea 69 3e
       0.066379204 -0.027054599 0.07716748 0.22843389
0001b0 db a0 8a 3f 95 ba ac 3f d7 a9 7d 3f 41 94 dd bc
       1.0830339 1.349444 0.9908728 -0.027048232
0001c0 c4 bf d2 be e9 83 a3 3d 6f 2d fd bd 61 c9 72 3d
       -0.4116193 0.07984144 -0.123621814 0.05927408
0001d0 5e af 9a 3c 14 a4 a9 bd 75 54 16 3d fd 8f 45 bd
       0.01888245 -0.082832485 0.03670164 -0.04823302
0001e0 7a 0c cf 3e bd ca 14 3f 71 79 1a 3f 28 0a 1f 3d
       0.40439206 0.58121854 0.60341555 0.038828045
0001f0 76 8b 69 3e 73 f9 51 bf 1e 31 3a 3d 0b 12 bf 3e
       0.22807106 -0.82021254 0.045456998 0.37318453
000200 83 41 64 3f 45 e6 90 bd 6f 8c 2b be 07 18 e5 bf
       0.8916246 -0.070751704 -0.1675279 -1.7897958
000210 15 2d 0e 3e 13 a0 f3 3d 13 fa de 3d 14 f2 10 be
       0.13884385 0.11895766 0.108875416 -0.14154845
000220 ec d2 fa be 23 d6 18 3f 35 99 12 3f 6b 9e a9 3f
       -0.48989046 0.59701747 0.57265025 1.325147
000230 e7 fe 41 be 16 46 89 3f 60 bf f5 3a 21 1d 2c 3f
       -0.18944894 1.0724514 0.0018749051 0.6723195
000240 d7 9d 3b 3e 50 aa 3e bf 7b ea e5 3e 94 62 ba 3e
       0.1832193 -0.74478626 0.44905457 0.36403334
000250 20 36 5b 3e 8b 35 ec 3c 02 73 e4 3e 0a 38 b2 3d
       0.21407366 0.028834125 0.44618994 0.08702095
000260 10 26 54 3f 3d 39 27 3f 00 e8 38 3f b9 f0 ba be
       0.8287058 0.65321714 0.72229004 -0.36511782
000270 c4 69 67 bf 9b ff 79 3c d6 8f b8 3e ea 44 a6 be
       -0.9039576 0.015258695 0.36047238 -0.32474452
000280 b7 d8 9b 3c 48 ef 56 bc 32 d9 54 3f 0b af 1a 3e
       0.019024236 -0.0131185725 0.83143914 0.15105836
000290 42 25 02 c0 b4 c5 70 3e 70 2b ff 3e 3a 63 a8 3d
       -2.033524 0.23512918 0.49837828 0.08222051
0002a0 55 21 81 3f 92 7d f7 3e 9b 5e 11 3e ce 4f c6 bd
       1.0088297 0.4833799 0.14196245 -0.0968319
0002b0 49 7a 54 3d 44 67 76 3c 0f dc 3e 3e 67 7b df 3e
       0.051874433 0.015039269 0.18638633 0.43648836
0002c0 93 9f a3 3e d9 30 51 3f 88 91 3c bd 1b de 4d 3e
       0.31957683 0.8171516 -0.046037227 0.20104258
0002d0 af c0 22 3f f7 56 a8 3d 0c 75 a9 3e 07 f5 6f 3d
       0.6357526 0.08219712 0.33097112 0.058583286
0002e0 71 7d c0 3d f6 b9 90 3f 3a 1f 9a be 0a 10 02 3f
       0.09398926 1.1306751 -0.3010195 0.50805724
0002f0 50 59 b4 3d 8b b5 a8 be 53 c1 4b bf c4 20 3b 3b
       0.088060975 -0.32951006 -0.79591864 0.0028553465
000300 89 e7 3a 3f 05 fa 9e bd 98 1d f5 bb 6e b4 88 3f
       0.73009545 -0.07762531 -0.0074803345 1.0680063
000310 5b 0a 95 3f 6e a2 ab 3e 6e df 00 be 1e fa 67 bd
       1.1643785 0.33522362 -0.12585232 -0.056635015

sequential/dense_2/MatMul f4 [27, 10]
000000 8a 0e aa 3e db 29 71 bf df c8 5b bf 2b 97 83 3e
       0.33214217 -0.9420449 -0.8585338 0.2570127
000010 7b 39 5e 3e 04 cd 75 3b ea b7 01 bf 36 a5 21 bf
       0.21701615 0.0037506232 -0.50671256 -0.63142717
000020 0e 7a 34 3f 8e c4 80 bd bf 3b 6e bf 98 42 a3 3e
       0.7049874 -0.0628749 -0.93059915 0.31886744
000030 4a ff c5 3e 03 fd a6 3b 82 8a d8 bd 3c db ce be
       0.38671333 0.0050960793 -0.10573293 -0.40401638
000040 4f 7b 29 bf 57 07 93 3f 0c 04 92 bf e3 7d 03 bf
       -0.6620378 1.1486615 -1.1407485 -0.5136396
000050 d1 a2 06 3d 71 73 23 bf b1 69 07 bf 5d 8f 28 3e
       0.032870118 -0.63848025 -0.5289565 0.16460939
000060 b2 b3 24 3f 26 91 50 bf 1d a5 26 bf 52 4c 5f be
       0.64336693 -0.8147148 -0.6509569 -0.21806458
000070 d6 cd 31 3e d5 a0 6b 3e 31 8d ae 3d 07 b9 00 be
       0.17363676 0.23010571 0.08523024 -0.12570582
000080 c4 5b 61 bf ea a5 53 3d 4c b8 a7 3e c8 59 92 3e
       -0.8803065 0.0516719 0.32757795 0.28584123
000090 b3 05 81 be 36 f0 0f bf 9b 40 bd 3e 45 99 5a 3e
       -0.2519966 -0.5622591 0.36963353 0.2134753
0000a0 e3 06 44 3d 73 6a 1e bd 9b f6 88 bf 0a 5c de 3d
       0.04785813 -0.038675737 -1.0700258 0.10857399
0000b0 e8 6b 20 3e 4f be 9e bb 81 9a 3b 3e 3f 29 73 3e
       0.15666163 -0.004844464 0.18320657 0.23746203
0000c0 b7 97 6c 3e 34 cf 3a bf 03 99 01 3e 98 ad c2 be
       0.2310475 -0.72972417 0.12656026 -0.38023067
0000d0 81 d4 4d bf d0 fa 05 3f c7 92 b8 3d 93 cb 8f be
       -0.8040238 0.52335835 0.090123706 -0.28085002
0000e0 de 1c c3 3e c7 52 04 bf 4e f5 a3 3e ee 8e d8 be
       0.3810796 -0.5168881 0.3202309 -0.42296547
0000f0 50 1f a0 3e b3 14 70 3d 57 e0 2b bd ae b8 ec 3a
       0.3127389 0.05861349 -0.041961994 0.001806041
000100 c2 5b 95 be 76 d5 7f bf bd ae a0 3e 0a f8 01 3f
       -0.29171568 -0.9993509 0.31383315 0.507691
000110 1d b2 14 3d 82 84 21 3e be 8b 06 3f bd f1 5b bf
       0.036302675 0.15773204 0.5255698 -0.8591574
000120 85 44 4e 3e ff 36 15 be 4d 8b bc 3d 5a 46 3d be
       0.20143326 -0.1457176 0.09206257 -0.18483868
000130 e0 18 94 be 76 45 3b be dd 61 a6 3d 4d 98 ab 3e
       -0.28925228 -0.18288216 0.08124135 0.33514634
000140 3f cd 95 be 88 dc ff be 07 4f d2 3d 17 d6 83 3e
       -0.29258153 -0.4997294 0.102689795 0.25749275
000150 2a c1 b3 3e 2b ad 8f 3e 28 c2 dc be e5 18 51 bd
       0.3510831 0.28061804 -0.4311688 -0.051049132
000160 37 22 1c 3d 81 91 9a be 0b a1 eb 3e e4 74 ad 3d
       0.038118567 -0.30189136 0.46021304 0.08469561
000170 6e f8 60 bf 08 64 07 bf ab 81 89 bf 31 1f 05 3f
       -0.87879074 -0.5288701 -1.0742697 0.5200072
000180 80 55 c2 3e 0e 68 e0 3e 09 5e 23 bf 1b 93 29 bf
       0.37955856 0.43829387 -0.6381536 -0.6624009
000190 5d be f2 3e 35 f9 1b 3e eb d3 1f bf 1a 97 3d bf
       0.4741086 0.15231784 -0.62432736 -0.7405869
0001a0 7f cc e9 3d 6e 2e a5 3e 5b 3c 63 3e 49 fe f0 3e
       0.11415958 0.32261986 0.22190993 0.47069004
0001b0 75 f0 bc bd 35 5a b3 bf b1 72 17 bf 7d 0b 0d be
       -0.09225551 -1.4011904 -0.5915938 -0.13773914
0001c0 02 9f d5 ba 64 88 c9 3e ed d5 d2 bc 7a 81 06 3f
       -0.0016297998 0.3936187 -0.025736773 0.52541316
0001d0 1e 16 12 bf ec 31 b6 3c be 24 a6 3e fb 8e 6a bf
       -0.57065 0.022240601 0.32449907 -0.9162442
0001e0 f1 ff 34 be 39 06 d4 be 24 ac a3 3e d5 93 36 3e
       -0.17675759 -0.41410998 0.3196727 0.17829831
0001f0 ec 3d 2b be 60 98 93 be a0 d5 c1 3e 7f 39 c6 be
       -0.1672284 -0.2882719 0.37858295 -0.3871574
000200 86 e4 60 be 94 26 b5 3e 15 54 e0 bc 82 96 42 be
       -0.21962175 0.35380995 -0.027383843 -0.19002727
000210 85 2c 36 3f 72 86 fb 3d fe 69 e2 be 07 e4 b2 bd
       0.7116168 0.12281503 -0.4422149 -0.08734899
000220 da 7f c6 3d fd bf da be 0e ed 1c 3e b6 e2 0e 3d
       0.096923545 -0.427246 0.15324804 0.034884177
000230 21 b3 cc be c7 96 a9 bf b7 fe 35 bf 52 61 9c 3e
       -0.39980415 -1.3249139 -0.7109179 0.30543
000240 77 5e 4b 3d 5e 01 34 bf 60 51 0d bf 18 77 ce be
       0.049650636 -0.70314586 -0.55202293 -0.40325236
000250 01 d4 2d 3f 39 a4 a5 3d 26 56 3f 3e 57 f5 5f bf
       0.6790162 0.080879636 0.18685207 -0.87483734
000260 2f 34 2e 3e df 89 06 be 6a 45 11 3f c3 e9 b1 be
       0.17012094 -0.13138531 0.5674654 -0.3474866
000270 84 46 fb be 39 46 d3 be 15 a6 31 be 63 e2 92 3e
       -0.49077237 -0.41264513 -0.17348512 0.28688344
000280 38 d5 5f 3e 39 f4 1f be 72 c1 c3 3e 5f 6e 4d bf
       0.2185868 -0.15620507 0.38233525 -0.8024654
000290 71 d9 c5 3d 2c 2d 32 3e d3 c4 4e bf 93 54 14 be
       0.09660614 0.17400044 -0.8076908 -0.14485388
0002a0 12 99 aa 3e d3 e0 13 3e 14 db 4b 3d d1 c8 33 3f
       0.33319908 0.14441232 0.049769476 0.70228297
0002b0 4e c7 d1 3e ec ed a0 bf bc 34 a8 be ec e1 ea 3e
       0.4097237 -1.2572608 -0.32852733 0.4587549
0002c0 70 42 01 be c8 c0 87 be 52 17 c1 3e 26 9f e9 be
       -0.12623 -0.26514268 0.37713104 -0.45629233
0002d0 5e 89 b1 bf 09 05 fd be d9 36 d2 3d cf f3 a2 bf
       -1.3870046 -0.49417904 0.102643676 -1.2730654
0002e0 26 c9 c2 3e a7 20 c7 bd a2 60 1c bf 71 8e 58 3f
       0.3804409 -0.09723025 -0.6108495 0.8459235
0002f0 f9 74 0a 3f cb 0d 38 bf ff 72 21 bf 61 ce d0 be
       0.54084736 -0.71896046 -0.63066095 -0.40782455
000300 45 54 14 be d0 87 0b 3f 20 82 38 3e 09 7a 10 3e
       -0.14485271 0.5450411 0.18018389 0.14109053
000310 63 0d a1 bf 36 99 4f be ef 08 47 bf 29 e5 9b bd
       -1.258221 -0.20273289 -0.77748007 -0.07612068
000320 6e da 25 bf 7b 7b c8 be a9 7d 62 be 20 8b 0a 3f
       -0.6478642 -0.39156708 -0.22118248 0.5411854
000330 51 28 20 3e 4a 17 d8 3d c2 c3 81 bf ec 84 b5 be
       0.1564038 0.10551317 -1.0137866 -0.35452974
000340 65 a7 57 bf 8d 06 98 3e 3f 3d e4 be eb 79 09 3f
       -0.842398 0.29692498 -0.44577977 0.5370166
000350 c2 fa 6c bf 5f 48 27 3d 6b c0 ea 3e 9f 7c fa 3d
       -0.92570126 0.040840503 0.45849928 0.12230801
000360 f6 c2 fe 3e d9 d5 77 be c0 f3 f6 3d bc cc a9 bf
       0.49758118 -0.2420267 0.120582104 -1.3265605
000370 a8 0c 23 bf a8 7f 72 bd d2 bf 91 3e bd 42 b6 bf
       -0.63691187 -0.059203774 0.2846666 -1.4239117
000380 ba 42 e1 3e 72 ed 7f bd f3 66 45 bf a6 c4 2f 3e
       0.4399622 -0.062482305 -0.77110213 0.17164859
000390 1e 59 a4 3e eb 6e 89 be 0b b0 bb bd cf 6f f9 bd
       0.3209924 -0.26842436 -0.09164437 -0.12179529
0003a0 ec d7 36 bd 98 e9 1b bf b5 81 09 bf e8 98 8a bd
       -0.044639513 -0.6090331 -0.5371354 -0.06767446
0003b0 7f 58 a5 3e 73 a6 95 3d a7 5b 52 3e 12 55 fd 3e
       0.3229408 0.07307138 0.20542775 0.49478966
0003c0 dc 7f 9f be 2b 0c ad bf b5 37 53 bf 5c 88 52 bf
       -0.31152236 -1.3519338 -0.8250688 -0.8223932
0003d0 c7 37 60 bf 58 23 3d be 64 3b d1 be 38 b2 cf be
       -0.8758511 -0.18470514 -0.40865624 -0.40565658
0003e0 17 20 2e bf 8f 76 ae be 8e 1e 11 bf 85 32 a2 bf
       -0.68017715 -0.34074828 -0.5668725 -1.2671667
0003f0 95 07 37 bf 29 31 8c bf 70 cd 55 bf 16 9d c6 be
       -0.71495944 -1.0952502 -0.835166 -0.38791722
